log/checkpoint_model.pth (torch, 278343 bytes, 24 tensors)

in_head.weight f4 [64, 16]
0.14370139 -0.025208414 0.23105153 0.059252437 -0.22309053 0.076967776 0.12844929 0.102469265
0.02021983 -0.09077042 0.18120188 -0.20660558 -0.18959522 -0.10543069 -0.23938021 -0.05696586
-0.22877358 0.24472657 0.19713992 -0.08593313 0.12023287 -0.00409246 -0.048774548 0.07078758
0.16013631 -0.2102722 -0.07360808 0.22243145 0.18067646 -0.16432211 0.13971666 0.023822632
0.21110259 0.025537226 0.047167756 -0.0913484 0.2079213 0.2450276 -0.037917726 -0.18242437
-0.10052764 -0.18475422 0.0013708516 -0.0076543936 0.007326251 0.06598753 -0.2179876 -0.2141689
-0.12765388 -0.23160756 0.015236144 -0.027390717 0.20719966 0.230672 0.098233975 0.17404923
0.073943555 -0.06630111 -0.22241423 0.22714424 -0.08688101 0.21639475 -0.18440294 -0.17525995
0.20903198 0.22888786 -0.03448433 -0.1772655 0.073806815 0.216367 -0.1220331 0.07065043
0.22802559 0.034969326 0.033534937 -0.08029175 0.13769808 -0.108967364 -0.1380525 0.23455748
0.20490406 0.16175571 -0.021136723 -0.2202271 -0.12395891 0.1962634 0.19292615 0.038604297
0.08199517 -0.017284924 -0.11166411 0.09251902 0.0016631252 0.0018722177 0.16589653 -0.10380801
0.059641525 -0.191683 0.029634444 -0.08685556 0.031485077 -0.07132599 0.043316033 0.19674513
0.05319813 0.076637745 -0.2001015 0.1927533 0.14556345 -0.1747208 0.11919272 0.17350188
-0.15642531 -0.0063436916 0.19353804 -0.1439195 0.249547 0.14021069 -0.17242602 0.16456628
-0.17386699 0.21540779 -0.009383443 0.065412104 0.20236894 0.11365041 -0.03563046 -0.04525169
-0.21671079 0.11079268 0.07700016 -0.03514713 -0.24144208 -0.08432451 -0.21548593 0.10219534
0.02999207 0.22357404 0.21290386 0.11919525 -0.04420253 0.15684213 -0.24813959 -0.08398041
-0.08844958 0.014222377 -0.14357884 0.19316827 0.11449222 0.19105296 -0.18306041 -0.11047441
-0.062360767 -0.2263425 -0.11409264 0.046003968 0.119941145 0.16246654 0.02318716 0.100770876
-0.048275903 -0.013912168 -0.022859925 -0.22078049 0.14906844 0.24703708 0.04077587 0.03630787
-0.23224553 -0.23290843 -0.06343516 -0.15629491 -0.1726318 0.12122303 -0.14115012 -0.1498282
-0.16657723 -0.17131239 -0.20898347 -0.11325631 -0.027436048 0.13441871 -0.20678556 0.23163198
0.1585898 0.023937028 0.23432702 -0.11286156 -0.0136077255 -0.121313944 0.15293518 -0.24048461
-0.15558855 -0.16521576 -0.106273025 -0.23864546 -0.24522403 0.14776516 0.0428203 0.23278767
-0.10121891 -0.030114047 0.14997515 0.16124284 -0.11085802 0.014351642 -0.22316536 -0.04704427
-0.17417301 -0.031376913 0.1796816 -0.19978829 0.13513456 0.22056435 0.23148349 -0.24975486
0.060276344 0.16479355 0.12933595 -0.01950838 -0.14819941 -0.15099604 -0.029304612 -0.15636098
-0.117838725 0.066928476 -0.040399615 0.13785473 0.06847766 -0.08340639 -0.19270465 -0.04732671
0.005270272 0.17531914 -0.24524722 0.21287921 0.21415165 -0.09172362 -0.04116926 -0.1648834
0.20260744 -0.01906744 0.07139712 -0.10736392 -0.19520265 0.154096 -0.23750284 -0.19702277
0.18713835 -0.11150113 0.10589229 0.1548788 -0.22782287 -0.13395211 -0.21470669 -0.064440615
00000000: 7526 133e e081 cebc c698 6c3e afb2 723d
00000010: d871 64be 48a1 9d3d 3688 033e 68db d13d
00000020: 0fa4 a53c d8e5 b9bd fc8c 393e 6a90 53be
00000030: 4025 42be 0cec d7bd 1620 75be 0955 69bd
00000040: 9f43 6abe 9a99 7a3e 0cdf 493e b5fd afbd
00000050: a73c f63d 0b1a 86bb d2c7 47bd 14f9 903d
00000060: c6fa 233e 9851 57be d5bf 96bd 12c5 633e
00000070: 4003 393e 0e44 28be e211 0f3e ae27 c33c
00000080: 472b 583e 7233 d13c fa32 413d df14 bbbd
00000090: 52e9 543e 84e8 7a3e 9e4f 1bbd 74cd 3abe
000000a0: 6fe1 cdbd 3630 3dbe 26ae b33a b5d1 fabb
000000b0: 0c11 f03b 7824 873d 2438 5fbe 184f 5bbe
000000c0: b3b7 02be 882a 6dbe 05a1 793c 7f62 e0bc
000000d0: 262c 543e 4835 6c3e e52e c93d f639 323e
000000e0: b86f 973d e0c8 87bd 8ec0 63be 8098 683e
000000f0: acee b1bd 9696 5d3e 20d4 3cbe 5877 33be
00000100: 7b0c 563e 9461 6a3e 713f 0dbd 1685 35be
00000110: 0728 973d 508f 5d3e 7dec f9bd 2cb1 903d
00000120: 8a7f 693e ff3b 0f3d ee5b 093d 0070 a4bd
00000130: ba00 0d3e 482a dfbd a25d 0dbe d62f 703e
00000140: 5fd2 513e 4aa3 253e ec26 adbc 3783 61be
00000150: 2bde fdbd 46f9 483e 6f8e 453e 8a1f 1e3d
00000160: 15ed a73d 1d99 8dbc 27b0 e4bd 9d7a bd3d
00000170: 39fd d93a 3465 f53a c8e0 293e 4b99 d4bd
00000180: ac4a 743d 8c48 44be efc3 f23c 54e1 b1bd
00000190: 7ff6 003d 5c13 92bd 276c 313d 8e77 493e
000001a0: 48e6 593d 40f4 9c3d 68e7 4cbe 1f61 453e
000001b0: 960e 153e 02ea 32be 501b f43d 7aaa 313e
000001c0: f52d 20be bede cfbb d62e 463e a25f 13be
000001d0: 4089 7f3e 6493 0f3e 7290 30be 1084 283e
000001e0: 300a 32be dc93 5c3e 03bd 19bc c8f6 853d
000001f0: ce39 4f3e 8cc1 e83d 3ff1 11bd d659 39bd
00000200: 6fe9 5dbe 46e7 e23d 43b2 9d3d 70f6 0fbd
00000210: 983c 77be 54b2 acbd 58a8 5cbe ca4b d13d
00000220: eeb1 f53c 98f0 643e 7803 5a3e a41c f43d
00000230: b60d 35bd 399b 203e 4e18 7ebe ecfd abbd
00000240: 0e25 b5bd f904 693c 5506 13be e7cd 453e
00000250: e67a ea3d 63a3 433e 3074 3bbe 6840 e2bd
00000260: 016e 7fbd 54c6 67be 67a9 e9bd a86e 3c3d
00000270: b4a3 f53d a15d 263e 00f3 bd3c f660 ce3d
00000280: f4bc 45bd ddef 63bc bd44 bbbc 4814 62be
00000290: 66a5 183e 4af7 7c3e 9904 273d 90b7 143d
000002a0: c6d1 6dbe 8c7f 6ebe 4bea 81bd c60b 20be
000002b0: 64c6 30be c843 f83d a889 10be 906c 19be
000002c0: 3993 2abe 846c 2fbe c3ff 55be edf2 e7bd
000002d0: 90c1 e0bc 0fa5 093e 98bf 53be ef30 6d3e
000002e0: 5d65 223e 9617 c43c 6cf3 6f3e f623 e7bd
000002f0: f0f2 5ebc 7273 f8bd 0a9b 1c3e 9941 76be
00000300: 9b52 1fbe 522e 29be aca5 d9bd 7a5f 74be
00000310: 021c 7bbe c04f 173e 5764 2f3d e45f 6e3e
00000320: dc4b cfbd bcb1 f6bc 1693 193e d81c 253e
00000330: 8809 e3bd 2623 6b3c 7685 64be 7eb1 40bd
00000340: 695a 32be 1485 00bd 74fe 373e 4d95 4cbe
00000350: b760 0a3e 9fdb 613e 020a 6d3e bdbf 7fbe
00000360: 54e4 763d a4bf 283e a570 043e 0ad0 9fbc
00000370: 96c1 17be b59e 1abe 3a10 f0bc 181d 20be
00000380: 6e55 f1bd cc11 893d 117a 25bd ca29 0d3e
00000390: 043e 8c3d f8d0 aabd 5e54 45be a7d9 41bd
000003a0: 3fb2 ac3b dc86 333e 1622 7bbe 02fd 593e
000003b0: 924a 5b3e 98d9 bbbd 19a1 28bd 32d7 28be
000003c0: 5378 4f3e 5233 9cbc a738 923d 9de1 dbbd
000003d0: 34e3 47be 58cb 1d3e f233 73be 56c0 49be
000003e0: 32a1 3f3e b45a e4bd 0fde d83d 8c98 1e3e
000003f0: 664a 69be be2a 09be 12dc 5bbe 71f9 83bd

in_head.bias f4 [64]
0.15693422 -0.1280848 -0.012016611 0.1880631 -0.0615959 0.22936071 -0.0836855 -0.014166845
-0.093437985 0.20780335 -0.14632155 0.18903251 0.12139876 0.2220201 -0.087868616 0.22238596
-0.1309839 -0.16254713 0.24572946 -0.022153271 -0.15749653 0.08396302 -0.16516317 0.14725073
0.109645054 0.16677941 0.042134985 0.2103314 -0.12976669 0.0755377 -0.059173364 -0.093923375
0.013363134 -0.1927358 0.13868414 -0.24525656 0.013146656 -0.052758772 0.06822692 0.052839953
-0.21965016 0.18659802 -0.055406824 0.24761833 -0.08543198 0.04258968 -0.24503793 -0.039258137
0.2302861 -0.07338305 -0.22809313 -0.12409179 -0.10020451 -0.2261077 -0.15270264 -0.027275903
-0.24352483 0.19716741 0.0039945673 -0.06693165 0.12153302 0.050134495 -0.01999463 0.0063690715
00000000: 5db3 203e a928 03be 52e1 44bc 9d93 403e
00000010: fc4b 7cbd 89dd 6a3e 4e63 abbd 0e1c 68bc
00000020: 6a5c bfbd 67ca 543e 51d5 15be bd91 413e
00000030: ea9f f83d 3d59 633e 76f4 b3bd 25b9 633e
00000040: a520 06be c172 26be 81a0 7b3e c77a b5bc
00000050: c546 21be cef4 ab3d 8920 29be e5c8 163e
00000060: 968d e03d 39c8 2a3e bc95 2c3d 1d61 573e
00000070: 8fe1 04be 82b3 9a3d c55f 72bd e65a c0bd
00000080: 0cf1 5a3c 895c 45be 3703 0e3e 8924 7bbe
00000090: 1265 573c 9519 58bd 8eba 8b3d b56e 583d
000000a0: f9eb 60be 8d13 3f3e 44f2 62bd a98f 7d3e
000000b0: f6f6 aebd 8472 2e3d 39eb 7abe 24cd 20bd
000000c0: 1fd0 6b3e da49 96bd 3f91 69be d623 febd
000000d0: 0638 cdbd c788 67be 155e 1cbe b771 dfbc
000000e0: 935e 79be 41e6 493e dce4 823b 7613 89bd
000000f0: 4ee6 f83d d459 4d3d c7cb a3bc a5b3 d03b

mamba.layers.0.mixer.A_log f4 [128, 16]
5.6684155e-05 0.6932464 1.0987111 1.3862009 1.609347 1.7918541 1.9460084 2.0793576
2.197128 2.3025103 2.3979902 2.4848788 2.5650296 2.6391451 2.708089 2.7726715
2.408021e-06 0.6932381 1.0987015 1.3862385 1.6093917 1.7918235 1.9459952 2.079403
2.1971495 2.302559 2.3979638 2.4849021 2.5649853 2.6391013 2.7080588 2.772626
-8.908749e-07 0.69305265 1.0985188 1.386365 1.6094977 1.7916827 1.9458183 2.0794902
2.1973095 2.3026319 2.3978164 2.484898 2.5649126 2.6389964 2.7080371 2.7725346
-4.5902077e-08 0.6931175 1.0985736 1.3863072 1.6094502 1.7917327 1.9458513 2.0794573
2.197275 2.3025973 2.3978467 2.4849095 2.5649273 2.639029 2.7080433 2.7725623
3.0894826e-05 0.6932457 1.0987102 1.3862044 1.6093552 1.791851 1.9460075 2.0793676
2.1971297 2.302516 2.3979876 2.4849162 2.5650222 2.639141 2.7080827 2.772668
2.1534288e-05 0.69324595 1.0987105 1.3862038 1.6093545 1.7918519 1.9460076 2.0793664
2.1971295 2.302517 2.3979883 2.4848993 2.5650234 2.6391406 2.70808 2.772667
-7.651118e-05 0.6930472 1.0985124 1.3863939 1.6095374 1.7916597 1.9458102 2.0795407
2.1973245 2.3026838 2.3977954 2.4849985 2.56485 2.638958 2.7079544 2.7724895
-1.6470334e-05 0.6930487 1.0985144 1.3863825 1.6095192 1.7916692 1.9458133 2.079515
2.1973186 2.3026476 2.397804 2.484927 2.564879 2.638978 2.7080214 2.7725146
-1.646392e-06 0.6930836 1.0985376 1.3862921 1.6094608 1.7917273 1.945862 2.0794723
2.1972632 2.302587 2.3978486 2.4849205 2.5649366 2.6390548 2.7080386 2.7725875
-8.88223e-06 0.6930484 1.0985142 1.3863845 1.6095208 1.7916685 1.9458128 2.0795097
2.197319 2.3026576 2.3978043 2.4848702 2.5648818 2.6389751 2.7080207 2.7725115
3.5348855e-08 0.6932118 1.0986874 1.3862578 1.6093929 1.7918234 1.9459976 2.079385
2.1971402 2.3025424 2.3979805 2.4848804 2.5650127 2.6391253 2.7080886 2.7726543
-7.177074e-05 0.6930472 1.0985124 1.386394 1.6095374 1.7916597 1.9458102 2.0795405
2.1973245 2.3026836 2.3977957 2.4849925 2.5648503 2.638958 2.7079558 2.7724895
1.7662678e-07 0.6931983 1.0986747 1.3862714 1.6094091 1.7918069 1.9459871 2.079406
2.1971538 2.3025615 2.397966 2.4848948 2.56499 2.6391034 2.7080667 2.7726314
4.2452184e-06 0.6932461 1.0987114 1.3861998 1.6093447 1.7918563 1.9460092 2.0793493
2.1971264 2.3024983 2.397993 2.484848 2.5650408 2.6391513 2.7081213 2.772681
-9.264726e-07 0.6930554 1.0985186 1.386376 1.6095148 1.7916704 1.945813 2.0795226
2.1973202 2.3026605 2.3978004 2.4849296 2.5648663 2.6389675 2.7079992 2.7725008
4.856111e-07 0.69311655 1.0985827 1.3863008 1.6094422 1.7917477 1.9458808 2.0794458
2.1972442 2.3025923 2.3978808 2.4849055 2.5649498 2.639049 2.7080498 2.7725832
00000000: 26c0 6d38 9978 313f 91a2 8c3f 086f b13f
00000010: 15ff cd3f 7a5b e53f ce16 f93f 3214 0540
00000020: bf9d 0c40 545c 1340 ac78 1940 4108 1f40
00000030: 7229 2440 c1e7 2840 5551 2d40 7373 3140
00000040: 7c99 2136 0d78 313f 40a2 8c3f 4370 b13f
00000050: 8c00 ce3f 795a e53f 5f16 f93f f014 0540
00000060: 199e 0c40 205d 1340 3d78 1940 a308 1f40
00000070: b828 2440 09e7 2840 d650 2d40 b472 3140
00000080: 7524 6fb5 e66b 313f 449c 8c3f 6974 b13f
00000090: 0504 ce3f dc55 e53f 9310 f93f 5e16 0540
000000a0: b8a0 0c40 525e 1340 d375 1940 9208 1f40
000000b0: 8727 2440 51e5 2840 7b50 2d40 3571 3140
000000c0: de25 45b3 2670 313f 0f9e 8c3f 8472 b13f
000000d0: 7702 ce3f 7f57 e53f a811 f93f d415 0540
000000e0: 27a0 0c40 c15d 1340 5276 1940 c208 1f40
000000f0: c527 2440 dae5 2840 9550 2d40 a971 3140
00000100: 1195 0138 8d78 313f 89a2 8c3f 256f b13f
00000110: 5aff cd3f 605b e53f c616 f93f 5c14 0540
00000120: c69d 0c40 6c5c 1340 a178 1940 de08 1f40
00000130: 5329 2440 b0e7 2840 3a51 2d40 6473 3140
00000140: 88a4 b437 9178 313f 8ca2 8c3f 206f b13f
00000150: 54ff cd3f 675b e53f c716 f93f 5714 0540
00000160: c59d 0c40 705c 1340 a478 1940 9708 1f40
00000170: 5829 2440 aee7 2840 2f51 2d40 6073 3140
00000180: a174 a0b8 8b6b 313f 0e9c 8c3f 5b75 b13f
00000190: 5205 ce3f 1b55 e53f 4f10 f93f 3217 0540
000001a0: f7a0 0c40 2c5f 1340 7b75 1940 370a 1f40
000001b0: 8126 2440 b0e4 2840 204f 2d40 7870 3140
000001c0: c629 8ab7 a46b 313f 1f9c 8c3f fb74 b13f
000001d0: ba04 ce3f 6b55 e53f 6910 f93f c616 0540
000001e0: dea0 0c40 945e 1340 9f75 1940 0b09 1f40
000001f0: fa26 2440 04e5 2840 3950 2d40 e170 3140
00000200: 99f9 dcb5 ed6d 313f e19c 8c3f 0572 b13f
00000210: d002 ce3f 5257 e53f 0212 f93f 1316 0540
00000220: f69f 0c40 965d 1340 5a76 1940 f008 1f40
00000230: ec27 2440 46e6 2840 8150 2d40 1372 3140
00000240: e304 15b7 9f6b 313f 1d9c 8c3f 0c75 b13f
00000250: c704 ce3f 6555 e53f 6510 f93f b016 0540
00000260: e0a0 0c40 be5e 1340 a075 1940 1d08 1f40
00000270: 0627 2440 f8e4 2840 3650 2d40 d470 3140
00000280: 7ad2 1733 5476 313f caa1 8c3f e570 b13f
00000290: 9600 ce3f 785a e53f 7316 f93f a514 0540
000002a0: f29d 0c40 db5c 1340 8378 1940 4808 1f40
000002b0: 2b29 2440 6ee7 2840 5351 2d40 2b73 3140
000002c0: 9f83 96b8 8b6b 313f 0e9c 8c3f 5c75 b13f
000002d0: 5205 ce3f 1b55 e53f 4f10 f93f 3117 0540
000002e0: f7a0 0c40 2b5f 1340 7c75 1940 1e0a 1f40
000002f0: 8226 2440 b0e4 2840 264f 2d40 7870 3140
00000300: cda6 3d34 7275 313f 5fa1 8c3f 5771 b13f
00000310: 1e01 ce3f ee59 e53f 1b16 f93f fd14 0540
00000320: 2b9e 0c40 2b5d 1340 4678 1940 8408 1f40
00000330: cc28 2440 12e7 2840 f750 2d40 cb72 3140
00000340: 2672 8e36 9478 313f 93a2 8c3f ff6e b13f
00000350: 02ff cd3f 8c5b e53f d416 f93f 0f14 0540
00000360: b89d 0c40 225c 1340 b878 1940 c007 1f40
00000370: a129 2440 dbe7 2840 dc51 2d40 9b73 3140
00000380: b6b2 78b5 146c 313f 429c 8c3f c574 b13f
00000390: 9504 ce3f 7555 e53f 6610 f93f e616 0540
000003a0: e5a0 0c40 ca5e 1340 9075 1940 1609 1f40
000003b0: c526 2440 d8e4 2840 dc4f 2d40 a770 3140
000003c0: f15a 0235 1670 313f 5c9e 8c3f 4e72 b13f
000003d0: 3402 ce3f fd57 e53f 9f12 f93f a415 0540
000003e0: a69f 0c40 ac5d 1340 e176 1940 b108 1f40
000003f0: 2328 2440 2ee6 2840 b050 2d40 0172 3140

mamba.layers.0.mixer.D f4 [128]
0.99990004 0.9999002 1.0000998 1.0000999 0.99990004 0.99990004 1.0001 1.0001
1.0000997 1.0000999 0.99990004 1.0001 0.99990004 0.9999 1.0001 0.99990153
0.99990004 1.0001 0.9999 1.0001 0.9999028 0.99990004 1.0001 0.9999001
0.9999 0.9999001 0.9999002 0.9999 0.99990004 0.9999002 1.0000861 0.9999002
1.0000999 1.0001 1.0000995 1.0001 1.0000998 1.0001 0.9999 1.0000981
1.0001 0.9999001 0.9999 0.99990004 0.99990004 0.99990004 1.0001 1.0001
0.9999 1.0001 0.9999004 0.99990016 1.0001 1.0000997 0.9999001 1.0001
0.99990004 1.0001 1.0000997 0.9999 1.0000999 1.0000995 0.99990004 1.0000999
0.9999 0.99990004 1.0001 0.9999002 0.9999001 1.0000988 1.0000997 1.0001
0.9999007 1.0000999 0.99990004 1.0000999 1.0001 1.0000999 1.0000999 0.99990004
1.0000998 1.0001 1.0001 0.9999001 0.99990004 1.0001 1.0000999 0.9999044
1.0000988 1.0001 1.0000999 1.0000999 1.0001 0.9999 0.9999 0.99990004
1.0001 1.0000999 1.0001 1.0001 0.9999 0.9999 0.99990004 1.0001
0.99990004 1.0001 0.9999003 0.99990004 1.0000999 0.99990004 0.99990004 0.99990004
0.99990004 0.99990004 0.9999 0.99990004 0.99990016 1.0001 1.0001 1.0000993
0.99990004 0.99990046 0.99990004 1.0000999 1.0000999 1.0001 1.0001 1.0001
00000000: 73f9 7f3f 76f9 7f3f 4503 803f 4603 803f
00000010: 73f9 7f3f 73f9 7f3f 4703 803f 4703 803f
00000020: 4403 803f 4603 803f 73f9 7f3f 4703 803f
00000030: 73f9 7f3f 72f9 7f3f 4703 803f 8cf9 7f3f
00000040: 73f9 7f3f 4703 803f 72f9 7f3f 4703 803f
00000050: a1f9 7f3f 73f9 7f3f 4703 803f 74f9 7f3f
00000060: 72f9 7f3f 74f9 7f3f 76f9 7f3f 72f9 7f3f
00000070: 73f9 7f3f 76f9 7f3f d202 803f 76f9 7f3f
00000080: 4603 803f 4703 803f 4303 803f 4703 803f
00000090: 4503 803f 4703 803f 72f9 7f3f 3703 803f
000000a0: 4703 803f 74f9 7f3f 72f9 7f3f 73f9 7f3f
000000b0: 73f9 7f3f 73f9 7f3f 4703 803f 4703 803f
000000c0: 72f9 7f3f 4703 803f 79f9 7f3f 75f9 7f3f
000000d0: 4703 803f 4403 803f 74f9 7f3f 4703 803f
000000e0: 73f9 7f3f 4703 803f 4403 803f 72f9 7f3f
000000f0: 4603 803f 4303 803f 73f9 7f3f 4603 803f
00000100: 72f9 7f3f 73f9 7f3f 4703 803f 76f9 7f3f
00000110: 74f9 7f3f 3d03 803f 4403 803f 4703 803f
00000120: 7ef9 7f3f 4603 803f 73f9 7f3f 4603 803f
00000130: 4703 803f 4603 803f 4603 803f 73f9 7f3f
00000140: 4503 803f 4703 803f 4703 803f 74f9 7f3f
00000150: 73f9 7f3f 4703 803f 4603 803f bcf9 7f3f
00000160: 3d03 803f 4703 803f 4603 803f 4603 803f
00000170: 4703 803f 72f9 7f3f 72f9 7f3f 73f9 7f3f
00000180: 4703 803f 4603 803f 4703 803f 4703 803f
00000190: 72f9 7f3f 72f9 7f3f 73f9 7f3f 4703 803f
000001a0: 73f9 7f3f 4703 803f 77f9 7f3f 73f9 7f3f
000001b0: 4603 803f 73f9 7f3f 73f9 7f3f 73f9 7f3f
000001c0: 73f9 7f3f 73f9 7f3f 72f9 7f3f 73f9 7f3f
000001d0: 75f9 7f3f 4703 803f 4703 803f 4103 803f
000001e0: 73f9 7f3f 7af9 7f3f 73f9 7f3f 4603 803f
000001f0: 4603 803f 4703 803f 4703 803f 4703 803f

mamba.layers.0.mixer.in_proj.weight f4 [256, 64]
0.12404175 0.005521651 0.020992963 0.022586044 -0.049799047 -0.074772336 0.08657279 -0.036622938
0.021222096 0.03673313 -0.10442669 -0.124692455 -0.04458816 -0.025560994 -0.040720295 0.07500113
-0.12192148 0.092581876 0.10991192 0.102823354 -0.08921452 0.059268836 -0.008685324 -0.12019641
-0.028788786 0.072474994 -0.060395565 -0.0942337 -0.012956958 -0.045227163 -0.08079782 -0.06748613
-0.053503383 -0.11661981 0.05167853 0.061023388 0.020889362 0.0068892776 0.09239732 -0.008055821
0.072957985 0.023468843 0.117891714 -0.031157356 0.12333144 0.109083034 0.062441174 0.049024843
0.062385906 0.09070302 0.11197997 0.07798927 0.026576348 0.041308705 -0.016835984 0.057865568
0.042197943 0.014419956 0.053440504 0.0072491406 0.098546155 0.028303945 0.01930259 -0.0807882
0.037136815 -0.11180704 -0.05967476 -0.06379642 -0.017745014 -0.086720236 -0.052920207 -0.089858525
0.09228188 -0.08759653 -0.05040364 -0.08065455 -0.12417149 0.11664499 0.035315078 0.1224968
-0.10599742 -0.03938068 0.046560623 0.016659202 0.06513352 -0.06031346 0.014954581 0.068951845
0.035132326 0.029881993 -0.064999804 0.024971144 -0.09572132 0.058166564 0.03085687 0.08405351
0.0860313 0.10723568 0.07591589 -0.052591607 0.017141776 -0.0866144 -0.031325884 -0.019284932
-0.07620664 -0.02743293 -0.103023775 0.045513872 -0.0859953 -0.08848642 -0.07082533 0.025663089
0.07740386 -0.111236185 0.0475205 0.0022161568 -0.012570256 -0.063030325 0.035511997 0.011872358
-0.12439923 -0.022300052 0.080144666 0.047496766 -0.03880067 -0.08734629 -0.09134267 0.10308664
0.05523988 -0.030593725 -0.09523439 0.03216476 -0.116751455 -0.03433514 -0.031014727 0.09238185
0.023745254 0.021180486 0.018296435 0.06431912 -0.12046714 -0.07957673 -0.059941098 0.12207402
-0.023455584 0.040065948 0.05127246 -0.09212505 -0.049728587 -0.032749567 0.029728102 0.083186805
-0.045424063 0.0025955997 -0.06688906 0.07173039 -0.05392431 -0.0040140687 -0.07550345 0.059619047
0.10142124 -0.050147645 0.08414207 -0.057736035 -0.121209 0.11567102 -0.008334266 -0.100589
-0.009989202 -0.0855422 -0.09265688 -0.024820965 -0.03298406 -0.113826014 0.07928039 -0.08770129
-0.07716431 0.086525254 0.10455934 0.113682814 0.049620822 -0.10996372 0.024025733 -0.0041905157
-0.07948119 0.118983634 -0.12248236 -0.08404042 -0.04749117 0.11114733 0.067934066 0.08304165
0.044963192 -0.024383703 0.12454806 0.07188631 0.025427794 -0.07265627 0.101114996 0.07872487
-0.09227636 0.04634238 0.07480757 -0.089836404 0.09950131 -0.03972805 -0.112591356 -0.08697259
0.058830097 0.060154773 -0.073597774 -0.117556736 -0.032551244 -0.09204866 0.11056155 0.122296356
-0.07165939 -0.03689589 0.058373135 -0.04736995 0.0818174 -0.10849592 -0.10337496 0.08705049
-0.034937114 -0.046927795 0.0913731 0.07241577 -0.10409964 0.0053112237 0.017170131 0.11490372
-0.015348666 -0.035194926 -0.018406574 -0.11128005 -0.09935641 0.00961702 0.018208312 0.11084356
-0.02267914 0.017585197 -0.11324407 -0.11169829 0.096786484 0.10456047 0.079076976 0.020547079
-0.02535882 0.116353616 0.10801258 0.05238568 -0.0072245444 0.0422237 -0.037705977 -0.004261744
00000000: 9a09 fe3d f7ee b43b 6ff9 ab3c 5e06 b93c
00000010: 16fa 4bbd 3d22 99bd 134d b13d ef01 16bd
00000020: f6d9 ad3c 7b75 163d a9dd d5bd c25e ffbd
00000030: 13a2 36bd 4a65 d1bc 53ca 26bd 319a 993d
00000040: f8b1 f9bd 919b bd3d 8019 e13d 0d95 d23d
00000050: 1ab6 b6bd e1c3 723d e44c 0ebc 8929 f6bd
00000060: 76d6 ebbc c56d 943d 5761 77bd 99fd c0bd
00000070: 6c49 54bc 1e40 39bd 5479 a5bd 2b36 8abd
00000080: 5d26 5bbd 5ed6 eebd deac 533d a9f3 793d
00000090: 2b20 ab3c 73bf e13b ce3a bd3d 90fc 03bc
000000a0: ff6a 953d bb41 c03c 3671 f13d b63d ffbc
000000b0: 3295 fc3d ed66 df3d 51c2 7f3d 46ce 483d
000000c0: 5d88 7f3d 81c2 b93d c155 e53d d7b8 9f3d
000000d0: a4b6 d93c 5133 293d 9eeb 89bc 7204 6d3d
000000e0: c0d7 2c3d ae41 6c3c 6ee4 5a3d 338a ed3b
000000f0: 91d2 c93d addd e73c 7720 9e3c 4974 a5bd
00000100: c61c 183d 17fb e4bd 856d 74bd b3a7 82bd
00000110: fe5d 91bc 619a b1bd dcc2 58bd bf07 b8bd
00000120: 48fe bc3d cf65 b3bd 0c74 4ebd 362e a5bd
00000130: 9f4d febd 92e3 ee3d 8ba6 103d 9adf fa3d
00000140: 2d15 d9bd a34d 21bd 5ab6 3e3d e178 883c
00000150: b964 853d 3f0b 77bd 0f04 753c a036 8d3d
00000160: eae6 0f3d 15cb f43c 9e1e 85bd 4990 cc3c
00000170: 8a09 c4bd 1040 6e3d 8cc7 fc3c 3f24 ac3d
00000180: 2e31 b03d 619e db3d ca79 9b3d 4c6a 57bd
00000190: e96c 8c3c e462 b1bd 924f 00bd 6ffb 9dbc
000001a0: 3a12 9cbd 06bb e0bc 21fe d2bd c16c 3a3d
000001b0: 4e1e b0bd 5e38 b5bd df0c 91bd 663b d23c
000001c0: ea85 9e3d cccf e3bd dba4 423d f13c 113b
000001d0: 7af3 4dbc 0b16 81bd 0775 113d 4784 423c
000001e0: 06c5 febd 99ae b6bc e322 a43d f88b 423d
000001f0: 74ed 1ebd 9de2 b2bd de11 bbbd 171f d33d
00000200: 3643 623d b19f fabc 3f0a c3bd 32bf 033d
00000210: 631b efbd 01a3 0cbd 9912 febc b232 bd3d
00000220: 6885 c23c b382 ad3c 68e2 953c beb9 833d
00000230: 7ab7 f6bd 20f9 a2bd cc84 75bd f201 fa3d
00000240: ed25 c0bc 311c 243d 1203 523d 0fac bcbd
00000250: 34b0 4bbd 6924 06bd 5988 f33c d85d aa3d
00000260: 950e 3abd f01a 2a3b 22fd 88bd 62e7 923d
00000270: bddf 5cbd 7388 83bb 8ea1 9abd 1a33 743d
00000280: f0b5 cf3d 9e67 4dbd ad52 ac3d 9f7c 6cbd
00000290: 6d3c f8bd ede4 ec3d 728c 08bc 9b01 cebd
000002a0: c0a9 23bc c030 afbd e4c2 bdbd 5655 cbbc
000002b0: 4b1a 07bd 9d1d e9bd c25d a23d bc9c b3bd
000002c0: 5208 9ebd 2734 b13d 3523 d63d 89d2 e83d
000002d0: 343f 4b3d a934 e1bd 9dd1 c43c 9850 89bb
000002e0: 09c7 a2bd b1ad f33d 08d8 fabd 621d acbd
000002f0: 1a86 42bd 36a1 e33d 0421 8b3d be11 aa3d
00000300: 532b 383d 55c0 c7bc 0e13 ff3d 2139 933d
00000310: f34d d03c cfcc 94bd 6115 cf3d 813a a13d
00000320: 63fb bcbd 82d1 3d3d b634 993d 26fc b7bd
00000330: 58c7 cb3d e1b9 22bd 4c96 e6bd af1e b2bd
00000340: d4f7 703d da64 763d 6eba 96bd 96c1 f0bd
00000350: 7454 05bd 0284 bcbd 186e e23d 8376 fa3d
00000360: 29c2 92bd 2520 17bd ab18 6f3d fe06 42bd
00000370: e28f a73d 1c33 debd 40b6 d3bd 8747 b23d
00000380: 381a 0fbd 5c37 40bd d221 bb3d b84e 943d
00000390: 3132 d5bd c609 ae3b 60a8 8c3c a452 eb3d
000003a0: f978 7bbc 8e28 10bd 62c9 96bc cbe6 e3bd
000003b0: 607b cbbd b590 1d3c 9929 953c f301 e33d
000003c0: 9bc9 b9bc d50e 903c 82ec e7bd 13c2 e4bd
000003d0: fe37 c63d cd23 d63d 1cf3 a13d 5952 a83c
000003e0: 4dbd cfbc ce4a ee3d b335 dd3d 5e92 563d
000003f0: dfbb ecbb c2f2 2c3d 9571 1abd 1aa6 8bbb

mamba.layers.0.mixer.conv1d.weight f4 [128, 1, 4]
-0.33447602 -0.18787147 0.45082036 0.16273539 0.19062085 -0.208207 -0.03221844 -0.15233956
-0.34822 0.41945004 0.1979119 -0.3827845 -0.48800507 -0.0741631 -0.32442144 -0.25458124
0.2783632 0.026134698 0.010018853 0.46886984 0.48164222 0.29663995 -0.3313181 0.2322307
-0.2670441 -0.42583343 -0.4018816 -0.39964303 0.053896967 -0.2764958 0.27369726 -0.07457905
-0.31302485 -0.15639558 -0.18651572 0.33247778 0.06670219 0.4200505 -0.29518867 -0.23558621
0.4133564 -0.17281719 -0.13792188 -0.3005226 0.49640372 0.44529703 0.10756855 -0.14039083
0.305999 0.2925457 0.015745597 -0.15187074 -0.43021575 -0.26342592 -0.44697604 0.24134555
0.25521675 0.46091577 0.37729403 -0.19848987 0.21955355 -0.21610972 0.2677722 0.2483239
0.12625149 -0.3910321 -0.33921567 -0.17245565 -0.49361768 -0.118859984 -0.20225076 0.23359527
-0.48758596 -0.15938288 -0.43491983 -0.24151416 0.39499438 -0.27245295 -0.44538224 0.45710856
-0.395652 0.24926452 0.38193268 -0.3275212 -0.2503039 0.08299514 0.02315315 0.30334106
0.47615346 0.42592815 0.20048611 0.057045143 0.22665995 -0.49745503 0.3160128 0.3804292
0.12642059 0.05669912 -0.23211113 0.10052904 -0.18425629 -0.008295929 0.1153787 -0.3406958
-0.15562913 0.035148416 -0.29770598 0.34169313 0.44183752 -0.26001015 0.29600522 -0.25387743
0.2841858 -0.008170571 0.2579054 0.43419012 0.06742841 0.43640542 0.49282706 -0.4863242
-0.06927744 0.12657323 0.17230462 0.1421488 -0.39449212 0.10750507 -0.24602073 0.19579978
0.31914905 0.470324 0.36150554 0.1926696 -0.18731128 -0.13414817 0.33050355 -0.48456407
0.090610534 0.10177775 0.34786028 0.10361722 0.07825928 -0.41556668 0.3589499 -0.21543336
0.16404147 -0.4601686 -0.21779971 0.11294014 0.15267822 -0.32141814 -0.4978396 0.41276148
0.4615681 0.1850781 -0.41076562 0.111170016 -0.49667445 -0.34484556 0.12108273 0.48323855
0.4542165 0.21382013 -0.4834561 -0.254146 -0.3570645 0.22873239 0.051554915 -0.36072272
-0.16548184 0.3527827 -0.3096045 -0.3237299 0.4195174 0.4676096 0.1792987 -0.33074135
0.50001264 0.13624163 -0.4071561 0.1958927 -0.019735338 0.030914184 0.1405617 -0.3070686
-0.4900016 0.48427 -0.2816101 -0.37271753 -0.37315518 0.37697512 0.029798182 -0.4762537
-0.021617617 0.017781708 0.22090325 -0.07499418 -0.49719688 0.23018734 -0.2037942 0.3248149
0.08698071 0.034711357 -0.046628177 -0.28650397 0.056657508 -0.26185897 0.23771395 -0.07368158
-0.49831554 0.35630313 0.19847552 -0.14564778 -0.49440733 -0.42322025 -0.30698755 0.252911
-0.45387062 -0.056543365 0.31521782 0.39561686 0.07002447 0.42430452 -0.4839774 0.045166057
-0.12805274 0.09527615 -0.44390395 -0.24615714 -0.31701407 -0.2030453 0.4375932 -0.033283632
-0.28892747 0.20748253 0.41164488 -0.16797921 0.29570988 -0.49693862 -0.15694074 -0.21543823
0.036889836 0.20303066 -0.25192982 0.20076266 -0.052595228 -0.16365686 -0.059771698 -0.30465794
-0.41469195 0.20110704 -0.3965263 0.30121437 0.06795405 0.31820676 -0.10293378 0.0054476745
00000000: 7140 abbe 6161 40be edd1 e63e 1ba4 263e
00000010: 1d32 433e 3734 55be 7cf7 03bd e7fe 1bbe
00000020: e449 b2be 28c2 d63e 6ba9 4a3e 54fc c3be
00000030: cddb f9be d3e2 97bd 911a a6be 7958 82be
00000040: 9f85 8e3e 6f18 d63c 1d26 243c b50f f03e
00000050: cf99 f63e 31e1 973e 87a2 a9be e2cd 6d3e
00000060: 01ba 88be d706 dabe 6dc3 cdbe 039e ccbe
00000070: 11c3 5c3d dc90 8dbe 0c22 8c3e e7bc 98bd
00000080: cb44 a0be 2a26 20be fafd 3ebe 873a aa3e
00000090: 289b 883d dc10 d73e f822 97be 833d 71be
000000a0: 73a3 d33e fdf6 30be 653b 0dbe 19de 99be
000000b0: a128 fe3e f9fd e33e e64c dc3d 9dc2 0fbe
000000c0: e7ab 9c3e 8dc8 953e e9fc 803c 0184 1bbe
000000d0: 3d45 dcbe c3df 86be 0bda e4be 4a23 773e
000000e0: c5ab 823e 27fd eb3e af2c c13e ee40 4bbe
000000f0: a5d2 603e de4b 5dbe 7019 893e 9f48 7e3e
00000100: 1248 013e 5c35 c8be adad adbe 3798 30be
00000110: 75bb fcbe dd6c f3bd d31a 4fbe 9933 6f3e
00000120: dea4 f9be 4435 23be d0ad debe 7d4f 77be
00000130: b43c ca3e f47e 8bbe 2409 e4be 220a ea3e
00000140: e692 cabe 333f 7f3e ae8c c33e dcb0 a7be
00000150: d527 80be 5bf9 a93d adab bd3c 854f 9b3e
00000160: 63ca f33e 4113 da3e 3b4c 4d3e 2ba8 693d
00000170: 8c19 683e 6db2 febe 6ecc a13e 9ec7 c23e
00000180: 6674 013e 563d 683d 8aae 6dbe 2be2 cd3d
00000190: aead 3cbe a6eb 07bc ab4b ec3d ae6f aebe
000001a0: 3e5d 1fbe c9f7 0f3d eb6c 98be 67f2 ae3e
000001b0: 8738 e23e 0d20 85be ff8d 973e 39fc 81be
000001c0: cd80 913e dcdd 05bc 2d0c 843e 2b4e de3e
000001d0: e817 8a3d 8870 df3e d453 fc3e 7cff f8be
000001e0: 55e1 8dbd 6a9c 013e 9f70 303e 748f 113e
000001f0: dffa c9be 9e2b dc3d dcec 7bbe bd7f 483e
00000200: 8167 a33e 4fce f03e 4117 b93e 2e4b 453e
00000210: 87ce 3fbe 235e 09be c337 a93e c818 f8be
00000220: 0492 b93d da70 d03d be1a b23e 4435 d43d
00000230: 6746 a03d 28c5 d4be 48c8 b73e 909a 5cbe
00000240: 7dfa 273e 389b ebbe e306 5fbe 294d e73d
00000250: ae57 1c3e eb90 a4be d5e4 febe 7955 d33e
00000260: a752 ec3e 1d85 3d3e df4f d2be 1bad e33d
00000270: 1d4c febe 998f b0be 39fa f73d 0b6b f73e
00000280: 118f e83e aaf3 5a3e 8f87 f7be 6d1f 82be
00000290: 28d1 b6be d338 6a3e 3f2b 533d a6b0 b8be
000002a0: 1274 29be ef9f b43e 7b84 9ebe edbf a5be
000002b0: fcca d63e 876a ef3e 149a 373e ee56 a9be
000002c0: d400 003f ed82 0b3e c476 d0be 1998 483e
000002d0: 01ac a1bc be3f fd3c 68ef 0f3e 1838 9dbe
000002e0: 7de1 fabe 3df2 f73e 332f 90be d5d4 bebe
000002f0: 320e bfbe e202 c13e 511b f43c 86d7 f3be
00000300: 6e17 b1bc f2aa 913c 7634 623e 8c96 99bd
00000310: 9790 febe 3bb6 6b3e 6daf 50be 234e a63e
00000320: f122 b23d 7f2d 0e3d 30fd 3ebd a6b0 92be
00000330: b411 683d 6112 86be 496b 733e 5ee6 96bd
00000340: 3723 ffbe 5d6d b63e 2b3d 4b3e b124 15be
00000350: f522 fdbe 53b0 d8be 792d 9dbe 8d7d 813e
00000360: bb61 e8be 049a 67bd 3b64 a13e 4b8e ca3e
00000370: fd68 8f3d 713e d93e e3cb f7be 0b00 393d
00000380: 4220 03be 2420 c33d 6147 e3be 9e10 7cbe
00000390: ab4f a2be 1beb 4fbe 370c e03e 6b54 08bd
000003a0: 4dee 93be 4d76 543e 1ec3 d23e be02 2cbe
000003b0: 4967 973e bd6e febe 13b5 20be d79b 5cbe
000003c0: cc19 173d 45e7 4f3e f2fc 80be ba94 4d3e
000003d0: 186e 57bd aa95 27be 2bd3 74bd 20fc 9bbe
000003e0: 8152 d4be 01ef 4d3e 7f05 cbbe c538 9a3e
000003f0: 7e2b 8b3d ffeb a23e f2ce d2bd 6882 b23b

mamba.layers.0.mixer.conv1d.bias f4 [128]
-0.13749285 -0.13296483 0.42704806 -0.2937717 -0.26280245 -0.18500994 0.1467952 0.24402496
-0.35489777 0.34855226 -0.022907874 0.47268447 -0.22300081 -0.16279592 0.3456705 0.06534498
-0.075063154 0.22562669 -0.4326369 0.4737701 -0.31053123 0.17117073 0.44433406 -0.136306
0.43993267 0.23353264 -0.415733 -0.018990416 -0.19322672 -0.29178154 -0.04245362 0.30023235
0.02847031 0.20460944 -0.07164082 -0.271588 -0.0870081 0.41709813 0.43881777 0.38426924
0.064777896 0.4584174 -0.39952055 -0.4774956 -0.2816185 -0.37044403 0.47727707 0.23806547
-0.4250575 -0.45441684 0.20556594 0.15140268 0.09016161 0.4948658 -0.32793206 0.15090774
-0.42396185 -0.4762297 -0.034182824 0.4663091 -0.3573621 -0.14440963 0.40989563 0.28922632
0.05460008 0.351114 -0.4021336 -0.08584628 0.08695879 0.007886085 -0.32458115 0.29642
0.41743004 -0.23574819 -0.162808 0.16566958 0.17579482 -0.09762315 -0.3658744 -0.108521305
-0.41026065 0.047808446 -0.1026052 0.039659876 0.48830625 0.16183345 -0.27227727 -0.044784565
-0.12718077 0.23773523 -0.4548682 0.43432483 -0.1756408 -0.3624542 -0.38249257 -0.095063426
0.29613152 0.3361303 -0.13935414 0.45437077 0.38874158 -0.2963396 0.19878371 -0.29874888
0.3395845 0.43772963 0.4334277 0.04863117 0.21608183 -0.1224672 -0.33090624 0.36713508
-0.07724967 -0.46081233 -0.2877088 -0.21324265 0.017703205 0.40286562 -0.2818099 -0.22913729
0.13969167 0.0095405895 0.0032615254 0.39348534 -0.21223602 0.19608304 0.047208585 0.47616205
00000000: edca 0cbe ef27 08be 0ba6 da3e 3f69 96be
00000010: 0b8e 86be 3f73 3dbe 7b51 163e aee1 793e
00000020: 29b5 b5be 7175 b23e 4ba9 bbbc b303 f23e
00000030: 535a 64be f9b3 26be b9fb b03e 97d3 853d
00000040: b6ba 99bd af0a 673e 9582 ddbe ff91 f23e
00000050: f3fd 9ebe 6147 2f3e c17f e33e cd93 0bbe
00000060: db3e e13e 2e23 6f3e f5da d4be ca91 9bbc
00000070: 3add 45be 6464 95be d9e3 2dbd 0eb8 993e
00000080: 913a e93c 2385 513e 6cb8 92bd 950d 8bbe
00000090: 4d31 b2bd e38d d53e b9ac e03e f0be c43e
000000a0: 46aa 843d afb5 ea3e f58d ccbe 4e7a f4be
000000b0: 4d30 90be d7aa bdbe a95d f43e 6fc7 733e
000000c0: 23a1 d9be 53a9 e8be e17f 523e 4e09 1b3e
000000d0: a6a6 b83d 0d5f fd3e b6e6 a7be 8f87 1a3e
000000e0: 8711 d9be 61d4 f3be 4a03 0cbd 11c0 ee3e
000000f0: 2af8 b6be 1ee0 13be d7dd d13e 7915 943e
00000100: 55a4 5f3d 37c5 b33e 75e4 cdbe 2dd0 afbd
00000110: 7317 b23d a334 013c 802f a6be 5dc4 973e
00000120: 64b9 d53e f967 71be 24b7 26be 49a5 293e
00000130: 8f03 343e a5ee c7bd e453 bbbe 6b40 debd
00000140: af0d d2be cad2 433d ad22 d2bd 6572 223d
00000150: 4703 fa3e abb7 253e ed67 8bbe 0570 37bd
00000160: ad3b 02be dd70 733e 7ce4 e8be d35f de3e
00000170: 2fdb 33be 9993 b9be 11d6 c3be 9db0 c2bd
00000180: 8d9e 973e 4519 ac3e dab2 0ebe 49a3 e83e
00000190: 2309 c73e d3b9 97be f58d 4b3e 9df5 98be
000001a0: 05de ad3e 191e e03e 3cea dd3e 7a31 473d
000001b0: 8e44 5d3e 15d0 fabd 8b6c a9be 21f9 bb3e
000001c0: 1335 9ebd 98ef ebbe 914e 93be 485c 5abe
000001d0: 5006 913c 6744 ce3e 6349 90be f7a2 6abe
000001e0: 550b 0f3e 2250 1c3c 51bf 553b e976 c93e
000001f0: 6654 59be fec9 483e ca5d 413d 83cb f33e

mamba.layers.0.mixer.x_proj.weight f4 [36, 128]
-0.043973744 0.07722194 -0.08756247 0.018788528 -0.045517728 -0.040892 0.016716992 -0.029706897
-0.0022412383 0.0046379627 0.05698392 -0.022164805 -0.04737547 0.058875512 0.08100848 0.014370747
-0.059547212 0.0512116 -0.07493389 -0.073899984 -0.023867324 -0.04078091 -0.044794496 -0.012488518
0.07781241 -0.08169844 -0.023738524 -0.016374594 -0.081755266 -0.019044047 -0.027187848 0.06436027
0.0010873774 -0.03595577 -0.003036837 -0.019406153 -0.073768474 -0.0530567 -0.05565507 -0.014709478
-0.042011853 0.02118579 0.007685399 -0.00021474494 0.05944874 -0.07402202 -0.055643044 0.031015985
-0.083441064 -0.0337908 0.0005751126 0.017499492 -0.04477531 -0.085049026 -0.04535545 0.04253742
-0.05400999 0.038602937 -0.025786074 -0.0115818 -0.012016061 -0.03796676 0.029854171 -0.01619828
0.06434534 -0.0035215695 -0.004233598 -0.060245052 0.043377988 0.00069827266 -0.045946676 0.008448388
-0.063423544 0.055201154 0.0072755734 -0.07894016 0.049339972 -0.05422233 -0.02991394 0.06680073
-0.035693184 0.042905618 0.08061461 -0.073456846 0.055151727 -0.08721501 0.030133106 -0.06740255
-0.013700157 0.020911634 0.022479838 0.042506546 -0.068118304 -0.043697584 -0.051720206 0.05930685
-0.059345417 -0.079111405 -0.025176393 0.039462328 0.08686964 0.03307924 0.066607654 0.033269946
0.08419956 -0.0860954 0.07602723 0.008714686 0.011879819 0.015360119 -0.08109354 0.046263687
0.025340533 -0.048054885 -0.0691409 -0.0112743 0.0037273264 0.059889264 -0.047039706 -0.008878537
0.05588391 0.049059246 0.06795179 -0.04431745 -0.01904431 -0.05835601 -0.07380506 -0.08718911
-0.08224522 -0.015674729 0.077425614 -0.027370198 0.050841864 0.0068212217 0.06265877 0.020437239
0.06647879 -0.04798375 0.046419717 -0.020957936 0.015046224 -0.025970777 0.08676136 -0.048896875
-0.018964168 0.025949668 0.0734298 -0.06361511 0.029032862 -0.07296893 -0.08649117 0.08041066
0.021108672 -0.015059806 -0.03913165 0.008375426 -0.08786181 0.05592093 0.08380208 0.0699311
-0.04339293 0.080223896 -0.06375676 0.07806273 -0.005650014 0.033290654 -0.009422107 -0.036248807
-0.062310044 -0.085185714 0.009992159 -0.029907556 -0.036303475 -0.0067838673 0.03534165 -0.049358368
0.043077894 0.047888488 0.026514018 -0.005620829 -0.048293866 -0.03928201 -0.04246608 -0.033655256
0.031958178 -0.08594269 -0.036652323 0.018792698 0.032131065 0.033320032 0.0653502 -0.06221619
-0.07861242 -0.007801302 -0.013171338 -0.049995713 0.048145246 -0.019094443 -0.047611434 0.08587882
-0.02747416 -0.001149673 -0.021361144 0.047564153 -0.06054477 0.04647471 0.05368133 0.08110079
-0.072754204 -0.018824283 -0.048318073 -0.08791144 -0.08509687 -0.01582352 0.0200642 0.07341509
-0.06833559 0.023630915 0.07775277 -0.014616619 0.043664545 -0.031067561 -0.07846983 0.055263337
0.06433121 -0.055417076 0.044271015 -0.06374427 -0.063938305 -0.03867892 -0.056446787 -0.058509726
0.072194055 -0.06581941 -0.00029215432 -0.06084881 -0.005960987 0.036760103 -0.010403002 0.078222156
0.015281245 -0.03200697 -0.048435383 0.00036716223 -0.07537392 -0.045150574 -0.008105169 0.035905883
0.043095 -0.062091727 0.0011748879 0.075591266 0.017083332 0.06123704 -0.04577308 0.049347073
00000000: d01d 34bd 8926 9e3d f453 b3bd 66ea 993c
00000010: cc70 3abd 5f7e 27bd 13f2 883c e15b f3bc
00000020: bde1 12bb 0dfa 973b f967 693d f792 b5bc
00000030: c80c 42bd 7327 713d c6e7 a53d 4873 6b3c
00000040: c7e7 73bd 41c3 513d f076 99bd e058 97bd
00000050: 6885 c3bc e209 27bd 6f7a 37bd a49c 4cbc
00000060: 1d5c 9f3d 8351 a7bd 4b77 c2bc 0324 86bc
00000070: 4e6f a7bd 4302 9cbc 0db9 debc 51cf 833d
00000080: 5586 8e3a 5c46 13bd ac05 47bb a7f9 9ebc
00000090: ed13 97bd fb51 59bd 92f6 63bd 0600 71bc
000000a0: 9f14 2cbd d28d ad3c cdd5 fb3b 282d 61b9
000000b0: 8680 733d db98 97bd f6e9 63bd 3c15 fe3c
000000c0: 26e3 aabd 3968 0abd 27c3 163a 185b 8f3c
000000d0: 5166 37bd 2f2e aebd a3c6 39bd b83b 2e3d
000000e0: 9439 5dbd 1d1e 1e3d 513d d3bc 97c1 3dbc
000000f0: 03df 44bc 0983 1bbd bc90 f43c 41b2 84bc
00000100: 7dc7 833d 22ca 66bb feb9 8abb 84c3 76bd
00000110: 1ead 313d 490c 373a 9532 3cbd 1c6b 0a3c
00000120: 34e4 81bd 9b1a 623d ef67 ee3b 61ab a1bd
00000130: b618 4a3d 3c18 5ebd 140e f5bc d2ce 883d
00000140: 0433 12bd cdbd 2f3d 4619 a53d 8b70 96bd
00000150: c7e6 613d c89d b2bd b4d9 f63c 590a 8abd
00000160: a076 60bc e04e ab3c a327 b83c 581b 2e3d
00000170: 9c81 8bbd 3dfc 32bd 91d8 53bd bdeb 723d
00000180: 2e14 73bd 2905 a2bd b93e cebc 40a3 213d
00000190: b6e8 b13d 197e 073d 9869 883d 1146 083d
000001a0: d270 ac3d c952 b0bd 2ab4 9b3d 0bc8 0e3c
000001b0: 93a3 423c 02a9 7b3c 5f14 a6bd fe7e 3d3d
000001c0: f396 cf3c 33d5 44bd bf99 8dbd d7b7 38bc
000001d0: 2946 743b 724e 753d b5ac 40bd 4977 11bc
000001e0: 87e6 643d 59f2 483d 4f2a 8b3d 3786 35bd
000001f0: d002 9cbc b606 6fbd 1b27 97bd 3490 b2bd
00000200: 2f70 a8bd 4a68 80bc 5291 9e3d 7737 e0bc
00000210: 8f3f 503d 8e84 df3b 3e53 803d ff6b a73c
00000220: 0826 883d 9c8a 44bd 9a22 3e3d faaf abbc
00000230: 7084 763c abc0 d4bc f1af b13d 1748 48bd
00000240: be5a 9bbc 6694 d43c 5d62 963d a448 82bd
00000250: 53d6 ed3c bc70 95bd 4822 b1bd 58ae a43d
00000260: 18ec ac3c 68bd 76bc 8248 20bd 1539 093c
00000270: e5f0 b3bd 580d 653d 6da0 ab3d 0938 8f3d
00000280: c9bc 31bd 6d4c a43d e792 82bd 5adf 9f3d
00000290: c123 b9bb c85b 083d 2e5f 1abc a179 14bd
000002a0: d138 7fbd d975 aebd 27b6 233c b100 f5bc
000002b0: f4b2 14bd 344b debb 68c2 103d 002c 4abd
000002c0: 7272 303d b826 443d ed33 d93c ee2e b8bb
000002d0: cacf 45bd 2ce6 20bd eaf0 2dbd 18da 09bd
000002e0: 94e6 023d b902 b0bd bf20 16bd 25f3 993c
000002f0: dd9b 033d 967a 083d 53d6 853d 67d6 7ebd
00000300: 8cff a0bd 10a2 ffbb 98cc 57bc 4ec8 4cbd
00000310: f333 453d f36b 9cbc 3504 43bd 3ce1 af3d
00000320: 7d11 e1bc a0b0 96ba 91fd aebc a1d2 423d
00000330: cbfd 77bd 445c 3e3d f4e0 5b3d 2c18 a63d
00000340: 2800 95bd 6235 9abc 2ce9 45bd ea0a b4bd
00000350: 4547 aebd 54a0 81bc ad5d a43c a75a 963d
00000360: 88f3 8bbd 9f95 c13c d83c 9f3d 8b7a 6fbc
00000370: 98d9 323d 6681 febc cab4 a0bd cf5b 623d
00000380: 15c0 833d 04fd 62bd 8655 353d 5b8c 82bd
00000390: 16f2 82bd ca6d 1ebd bf34 67bd e5a7 6fbd
000003a0: 7ada 933d 54cc 86bd 4a2c 99b9 9a3c 79bd
000003b0: 6254 c3bb c391 163d 5a71 2abc f032 a03d
000003c0: 305e 7a3c be19 03bd 2e64 46bd ae7f c039
000003d0: a45d 9abd cfef 38bd 8bcb 04bc 0c12 133d
000003e0: 6284 303d e553 7ebd b2fe 993a 98cf 9a3d
000003f0: 58f2 8b3c b1d3 7a3d 8e7c 3bbd 2820 4a3d

mamba.layers.0.mixer.dt_proj.weight f4 [128, 4]
0.31167093 0.017670719 -0.26466691 0.2817591 0.013702175 -0.18128936 -0.033391986 -0.08909682
0.40255973 -0.25731012 0.332923 -0.16952468 0.34107292 0.021907875 0.37047338 -0.38815308
-0.24723335 0.22469184 0.21916789 0.09990436 0.25593993 -0.47370753 0.09311827 -0.0983899
0.25503838 -0.3882125 -0.103961885 0.22975749 0.29974157 0.050084904 -0.3007295 -0.08769746
0.41759995 -0.44893578 -0.142248 0.3716606 0.19364716 -0.35550874 0.29449466 -0.02376864
-0.006594458 -0.43693167 -0.37748066 0.16799292 -0.014270642 -0.05973903 0.11941016 0.15082557
-0.15809214 -0.11862317 -0.37070248 0.04811946 0.41693178 -0.030889409 -0.16724174 -0.09508237
-0.41063163 0.04551491 -0.4605778 0.45101228 -0.4122016 -0.20342177 0.15859453 0.12433697
-0.17046803 -0.14159575 0.13685384 0.3092824 0.21414493 0.31466603 0.2690738 -0.13706933
-0.45958427 -0.0024161052 -0.28060082 -0.21398579 0.004309619 0.49102893 0.48949784 0.042736314
0.3397342 -0.14792593 0.06694295 -0.38834733 -0.13741212 0.25776002 0.44998568 -0.02305398
0.27783808 0.1776854 0.40932316 -0.047872763 -0.017627755 0.21788146 -0.19118059 -0.23310284
-0.24181385 -0.09724426 -0.43443698 0.11826467 -0.23830964 0.0071812314 0.13132349 -0.47980693
-0.14594494 0.27953386 -0.2371551 0.25771248 0.110859714 0.24154994 0.4204726 -0.31805488
0.094505414 0.011661492 0.2974485 -0.17821117 -0.43654487 -0.48329785 -0.13423304 -0.18620078
0.45468876 -0.4258242 0.11903298 0.49583584 -0.36755836 0.12739657 -0.3945124 -0.27123764
-0.35601008 -0.12604564 0.3106747 -0.46366155 -0.22737676 -0.10846435 -0.2825811 0.008682283
0.14985289 0.16492172 -0.4234346 -0.47356042 0.47598168 -0.38527706 0.28304154 0.41135275
-0.10785506 0.024995225 -0.15442608 -0.07208205 0.0064849136 -0.08730865 0.20044497 0.1324584
-0.19690952 0.16601534 -0.4241718 0.12861162 0.45767096 0.03284505 0.28044915 0.47176048
-0.46923405 -0.34213915 -0.38026404 -0.40504748 0.27781728 -0.015764099 0.3663667 0.11136778
-0.3758282 0.16148068 0.20881283 0.094623014 -0.2719673 -0.19138746 0.3796983 0.08910719
0.056790087 0.089200206 -0.118500926 -0.3904672 0.32865074 -0.30375046 0.07616271 -0.028223768
-0.1181512 -0.43476498 0.24576549 -0.0050958996 0.42648843 0.09145832 0.09723395 0.08760615
-0.31399643 0.09352764 -0.32670212 -0.3848912 -0.40548113 0.44560263 -0.3203818 0.16917992
-0.258308 0.31871638 0.23394048 -0.21809332 -0.3592623 -0.45186722 -0.34601855 -0.20225123
0.114586644 0.22502711 0.23981395 0.20377527 0.03711218 -0.42642748 0.11895497 -0.20388727
0.3101903 -0.13877521 0.28274435 0.12153072 0.11941281 0.078670554 -0.2806224 0.10003895
0.21939287 0.32853395 0.48344898 -0.31377402 0.14764106 0.087843604 0.42110342 -0.42111441
0.39305267 -0.13706547 0.01618281 0.47113186 -0.04730646 0.09233719 0.38768637 0.080393896
0.22040062 0.40229338 -0.32924443 -0.32394984 -0.25483587 0.14986071 0.33363432 0.1326488
0.024438586 -0.11632022 0.44829184 0.09770355 -0.1849124 -0.26502773 0.106549114 -0.40471503
00000000: 5593 9f3e 2fc2 903c 6c82 87be bb42 903e
00000010: 167f 603c eba3 39be 09c6 08bd 6578 b6bd
00000020: 4f1c ce3e 27be 83be e274 aa3e e197 2dbe
00000030: 1ca1 ae3e 2578 b33c b0ae bd3e 00bc c6be
00000040: bd2a 7dbe 9e15 663e 8c6d 603e a89a cc3d
00000050: 8f0a 833e cb89 f2be cbb4 be3d a580 c9bd
00000060: 6494 823e cac3 c6be f8e9 d4bd 8c45 6b3e
00000070: ba77 993e d425 4d3d 38f9 99be ba9a b3bd
00000080: a9cf d53e e9da e5be 76a9 11be 4c4a be3e
00000090: 714b 463e 3e05 b6be 01c8 963e 73b6 c2bc
000000a0: 5316 d8bb 82b5 dfbe 2545 c1be 5606 2c3e
000000b0: 69cf 69bc eab0 74bd 508d f43d 0572 1a3e
000000c0: e8e2 21be b4f0 f2bd b7cc bdbe e918 453d
000000d0: 1578 d53e c90b fdbc 6b41 2bbe 8cba c2bd
000000e0: 4f3e d2be d86d 3a3d dad0 ebbe 15eb e63e
000000f0: 170c d3be cc4d 50be 9b66 223e 62a4 fe3d
00000100: 2c8f 2ebe 7afe 10be 6a23 0c3e 435a 9e3e
00000110: cf48 5b3e e81b a13e 0bc4 893e e75b 0cbe
00000120: a14e ebbe 8557 1ebb e9aa 8fbe 171f 5bbe
00000130: b437 8d3b 2568 fb3e 769f fa3e 460c 2f3d
00000140: a4f1 ad3e e579 17be 6319 893d 76d5 c6be
00000150: c3b5 0cbe 1ff9 833e 8664 e63e b3db bcbc
00000160: cb40 8e3e 29f3 353e ce92 d13e 3b16 44bd
00000170: 1568 90bc 511c 5f3e d8c4 43be 83b2 6ebe
00000180: 0d9e 77be 0028 c7bd 866e debe bf34 f23d
00000190: 7107 74be 8950 eb3b aa79 063e 41a9 f5be
000001a0: 9772 15be 101f 8f3e c9d8 72be e4f2 833e
000001b0: 6b0a e33d de58 773e 2f48 d73e 17d8 a2be
000001c0: 0e8c c13d d80f 3f3c 2b4b 983e fd7c 36be
000001d0: cf82 dfbe d172 f7be 6374 09be 6bab 3ebe
000001e0: f7cc e83e a105 dabe 90c7 f33d 32de fd3e
000001f0: 9c30 bcbe 3f74 023e 87fd c9be a9df 8abe
00000200: f446 b6be 1c12 01be c110 9f3e 0c65 edbe
00000210: 74d5 68be 8f22 debd 78ae 90be 2240 0e3c
00000220: 0973 193e 3de1 283e 6bcc d8be 8376 f2be
00000230: dfb3 f33e 0943 c5be d2ea 903e d49c d23e
00000240: 1de3 dcbd c9c2 cc3c df21 1ebe c19f 93bd
00000250: 667f d43b e1ce b2bd 7241 4d3e 2da3 073e
00000260: a6a2 49be edff 293e 0c2d d9be c4b2 033e
00000270: d953 ea3e 8888 063d 0897 8f3e 978a f13e
00000280: 723f f0be dd2c afbe f8b1 c2be 6262 cfbe
00000290: 113e 8e3e b623 81bc 6b94 bb3e ca14 e43d
000002a0: 8e6c c0be 315b 253e 08d3 553e b6c9 c13d
000002b0: 4c3f 8bbe 13fb 43be d167 c23e d57d b63d
000002c0: b99c 683d 99ae b63d 9db0 f2bd 51eb c7be
000002d0: e944 a83e 2e85 9bbe 32fb 9b3d 8835 e7bc
000002e0: 42f9 f1bd 8499 debe f3a9 7b3e 81fb a6bb
000002f0: b15c da3e 804e bb3d 9822 c73d da6a b33d
00000300: 24c4 a0be 6b8b bf3d 8045 a7be 7610 c5be
00000310: 399b cfbe 0726 e43e 1509 a4be 803d 2d3e
00000320: f240 84be cb2e a33e 188e 6f3e db53 5fbe
00000330: 3af1 b7be 245b e7be 5829 b1be f21a 4fbe
00000340: 67ac ea3d 826d 663e ca91 753e 77aa 503e
00000350: f102 183d b454 dabe aa9e f33d d3c7 50be
00000360: 43d1 9e3e 171b 0ebe dec3 903e 19e5 f83d
00000370: b48e f43d 071e a13d bdad 8fbe 39e1 cc3d
00000380: 86a8 603e 9a35 a83e a086 f73e fda6 a0be
00000390: 382f 173e 59e7 b33d de9a d73e 4f9c d7be
000003a0: 333e c93e e45a 0cbe d091 843c 3238 f13e
000003b0: 6bc4 41bd 481b bd3d d47e c63e 8ea5 a43d
000003c0: b3b0 613e 66f9 cd3e ba92 a8be c1dc a5be
000003d0: d979 82be 1675 193e 1ed2 aa3e 16d5 073e
000003e0: 6e33 c83c 4c39 eebd 8286 e53e cc18 c83d
000003f0: ad59 3dbe b7b1 87be 6c36 da3d cf36 cfbe

mamba.layers.0.mixer.dt_proj.bias f4 [128]
-2.2968903 -3.5026622 -3.8671584 -6.3874187 -2.8470066 -2.440828 -4.024299 -2.7471416
-4.509218 -2.4552839 -6.705603 -3.060803 -6.1589503 -4.62013 -5.9474015 -4.571302
-2.9851632 -2.507591 -3.7267015 -4.512671 -5.9216795 -5.0246873 -4.6362333 -5.0976405
-6.475692 -6.1854157 -3.0640428 -4.1361704 -6.676906 -5.220944 -6.823211 -6.8338413
-3.9430473 -2.9172015 -3.8285165 -6.179384 -3.5438623 -3.589144 -2.4209223 -6.295451
-3.558753 -3.129254 -4.2889566 -6.288068 -6.8119745 -2.419707 -3.257367 -2.7115576
-6.3413115 -3.652512 -5.7999206 -6.844377 -6.019231 -4.8017926 -3.070439 -5.7681284
-6.346472 -6.594913 -2.6225564 -2.5454164 -2.8920557 -4.12647 -3.887728 -5.810563
-3.3495064 -3.934719 -2.3271122 -6.6313834 -4.997951 -6.156407 -2.8748121 -4.2490873
-5.113849 -3.101045 -6.810141 -5.14132 -4.198796 -6.0735493 -4.4336143 -3.373923
-5.6950536 -3.2397707 -3.68874 -4.7271814 -3.5151668 -4.781224 -5.8820376 -4.307145
-2.5688632 -5.0679765 -5.049954 -3.6613467 -4.310145 -4.829784 -6.4223075 -6.218996
-4.2708178 -3.4728582 -2.7405105 -4.322035 -4.091214 -4.179935 -6.878479 -3.692819
-3.880502 -2.4014463 -4.521837 -4.173552 -3.1106086 -5.448985 -4.085959 -6.698286
-6.122288 -2.5360434 -3.0542326 -6.571946 -2.404535 -4.51016 -6.2500944 -5.6428995
-6.361137 -3.6478271 -5.509091 -5.8870854 -5.2063193 -2.3136537 -4.5452633 -4.7477074
00000000: 4000 13c0 9e2b 60c0 867f 77c0 bc65 ccc0
00000010: 5b35 36c0 8736 1cc0 0fc7 80c0 2bd1 2fc0
00000020: 844b 90c0 5f23 1dc0 4d94 d6c0 32e4 43c0
00000030: 1f16 c5c0 1bd8 93c0 1d51 bec0 1b48 92c0
00000040: ea0c 3fc0 5f7c 20c0 4782 6ec0 cd67 90c0
00000050: 667e bdc0 3dca a0c0 065c 94c0 df1f a3c0
00000060: de38 cfc0 edee c5c0 4719 44c0 825b 84c0
00000070: 37a9 d5c0 f911 a7c0 bf57 dac0 d4ae dac0
00000080: e35a 7cc0 6eb3 3ac0 6a06 75c0 84bd c5c0
00000090: a4ce 62c0 89b4 65c0 64f0 1ac0 5674 c9c0
000000a0: 9cc2 63c0 b345 48c0 223f 89c0 da37 c9c0
000000b0: b2fb d9c0 7bdc 1ac0 b378 50c0 298a 2dc0
000000c0: 06ec cac0 c2c2 69c0 f398 b9c0 2305 dbc0
000000d0: 8a9d c0c0 49a8 99c0 1382 44c0 8294 b8c0
000000e0: 4c16 cbc0 8709 d3c0 f7d7 27c0 1ae8 22c0
000000f0: 7117 39c0 0b0c 84c0 89d0 78c0 22f0 b9c0
00000100: 505e 56c0 70d2 7bc0 68ef 14c0 4b34 d4c0
00000110: 37ef 9fc0 4901 c5c0 ecfc 37c0 86f8 87c0
00000120: a7a4 a3c0 8577 46c0 adec d9c0 b285 a4c0
00000130: 895c 86c0 845a c2c0 2be0 8dc0 5bee 57c0
00000140: e13d b6c0 6758 4fc0 5114 6cc0 1245 97c0
00000150: 7ef8 60c0 c9ff 98c0 a739 bcc0 22d4 89c0
00000160: 4168 24c0 dd2c a2c0 3999 a1c0 8153 6ac0
00000170: b5ec 89c0 978d 9ac0 8b83 cdc0 0402 c7c0
00000180: 8aaa 88c0 4f43 5ec0 8664 2fc0 1c4e 8ac0
00000190: 3aeb 82c0 07c2 85c0 801c dcc0 2657 6cc0
000001a0: 255a 78c0 4cb1 19c0 e4b2 90c0 bd8d 85c0
000001b0: 3614 47c0 165e aec0 2dc0 82c0 5c58 d6c0
000001c0: c9e9 c3c0 894e 22c0 8c78 43c0 624d d2c0
000001d0: e7e3 19c0 3b53 90c0 c600 c8c0 a292 b4c0
000001e0: 6f8e cbc0 0076 69c0 794a b0c0 0163 bcc0
000001f0: 2b9a a6c0 e712 14c0 cc72 91c0 38ed 97c0
